…
 99%|█████████▉| 791/800 [00:21<00:00, 54.87it/s, loss=6.422e-02]
 99%|█████████▉| 791/800 [00:21<00:00, 54.87it/s, loss=6.432e-02]
 99%|█████████▉| 791/800 [00:21<00:00, 54.87it/s, loss=6.432e-02]
100%|█████████▉| 797/800 [00:21<00:00, 55.75it/s, loss=6.432e-02]
100%|█████████▉| 797/800 [00:21<00:00, 55.75it/s, loss=6.459e-02]
100%|█████████▉| 797/800 [00:21<00:00, 55.75it/s, loss=6.437e-02]
100%|█████████▉| 797/800 [00:21<00:00, 55.75it/s, loss=6.423e-02]
100%|██████████| 800/800 [00:21<00:00, 36.84it/s, loss=6.423e-02]
13-Mar-26 05:52:19 - __main__ - [INFO] - MSNet(
  (down22): AvgPool2d(kernel_size=2, stride=2, padding=0)
  (layer1): Sequential(
    (0): Conv2d(229, 96, kernel_size=(3, 3), stride=(1, 1), padding=(1, 1))
    (1): LeakyReLU(negative_slope=0.2)
    (2): BatchNorm2d(96, eps=1e-05, momentum=0.1, affine=True, track_running_stats=True)
    (3): Dropout(p=0.2, inplace=False)
    (4): Conv2d(96, 48, kernel_size=(3, 3), stride=(1, 1), padding=(1, 1))
    (5): LeakyReLU(negative_slope=0.2)
    (6): BatchNorm2d(48, eps=1e-05, momentum=0.1, affine=True, track_running_stats=True)
    (7): Dropout(p=0.2, inplace=False)
    (8): Conv2d(48, 5, kernel_size=(3, 3), stride=(1, 1), padding=(1, 1))
  )
  (downsampling22): AvgPool2d(kernel_size=2, stride=2, padding=0)
  (downsampling44): AvgPool2d(kernel_size=4, stride=4, padding=0)
  (layer2): Sequential(
    (0): Conv2d(229, 96, kernel_size=(3, 3), stride=(1, 1), padding=(1, 1))
    (1): LeakyReLU(negative_slope=0.2)
    (2): BatchNorm2d(96, eps=1e-05, momentum=0.1, affine=True, track_running_stats=True)
    (3): Dropout(p=0.2, inplace=False)
    (4): Conv2d(96, 48, kernel_size=(3, 3), stride=(1, 1), padding=(1, 1))
    (5): LeakyReLU(negative_slope=0.2)
    (6): BatchNorm2d(48, eps=1e-05, momentum=0.1, affine=True, track_running_stats=True)
    (7): Dropout(p=0.2, inplace=False)
    (8): Conv2d(48, 5, kernel_size=(3, 3), stride=(1, 1), padding=(1, 1))
  )
  (layer3): Sequential(
    (0): Conv2d(224, 96, kernel_size=(3, 3), stride=(1, 1), padding=(1, 1))
    (1): LeakyReLU(negative_slope=0.2)
    (2): BatchNorm2d(96, eps=1e-05, momentum=0.1, affine=True, track_running_stats=True)
    (3): Dropout(p=0.2, inplace=False)
    (4): Conv2d(96, 48, kernel_size=(3, 3), stride=(1, 1), padding=(1, 1))
    (5): LeakyReLU(negative_slope=0.2)
    (6): BatchNorm2d(48, eps=1e-05, momentum=0.1, affine=True, track_running_stats=True)
    (7): Dropout(p=0.2, inplace=False)
    (8): Conv2d(48, 5, kernel_size=(3, 3), stride=(1, 1), padding=(1, 1))
  )
  (softmax): Softmax(dim=1)
  (transconv): Conv2d(5, 5, kernel_size=(1, 1), stride=(1, 1))
  (transconv2): Conv2d(224, 224, kernel_size=(1, 1), stride=(1, 1))
  (decoderlayer4): Conv2d(5, 224, kernel_size=(1, 1), stride=(1, 1), bias=False)
  (decoderlayer5): Conv2d(5, 224, kernel_size=(1, 1), stride=(1, 1), bias=False)
  (decoderlayer6): Conv2d(5, 224, kernel_size=(1, 1), stride=(1, 1), bias=False)
) took 28.51s
13-Mar-26 05:52:19 - __main__ - [INFO] - Estimates saved to /fs-computility-new/UPDZ02_sunhe/shared/QA_yixuan/standalone_unmixing_MSNet_DC1_sandbox/exp_standalone_unmixing_MSNet_DC1/estimates.mat
13-Mar-26 05:52:19 - __main__ - [INFO] - SRE => {'Overall': 5.0884}
  [Metadata] Recorded schema for: compute_metric
13-Mar-26 05:52:19 - __main__ - [INFO] - aRMSE => {'Overall': 13.323, '#0': 3.5516, '#1': 9.1826, '#2': 14.5015, '#3': 7.3019, '#4': 22.9557}
…
