…
 98%|█████████▊| 1970/2000 [00:07<00:00, 287.00it/s, loss=5.907e-04]
 98%|█████████▊| 1970/2000 [00:07<00:00, 287.00it/s, loss=5.903e-04]
 98%|█████████▊| 1970/2000 [00:07<00:00, 287.00it/s, loss=5.902e-04]
 98%|█████████▊| 1970/2000 [00:07<00:00, 287.00it/s, loss=5.903e-04]
100%|█████████▉| 1999/2000 [00:07<00:00, 287.31it/s, loss=5.903e-04]
100%|█████████▉| 1999/2000 [00:07<00:00, 287.31it/s, loss=5.902e-04]
100%|██████████| 2000/2000 [00:07<00:00, 253.37it/s, loss=5.902e-04]
13-Mar-26 09:25:56 - __main__ - [INFO] - SUnCNN(
  (layer1): Sequential(
    (0): ReflectionPad2d((1, 1, 1, 1))
    (1): Conv2d(224, 256, kernel_size=(3, 3), stride=(2, 2))
    (2): BatchNorm2d(256, eps=1e-05, momentum=0.1, affine=True, track_running_stats=True)
    (3): LeakyReLU(negative_slope=0.1, inplace=True)
  )
  (layer2): Sequential(
    (0): ReflectionPad2d((1, 1, 1, 1))
    (1): Conv2d(256, 256, kernel_size=(3, 3), stride=(1, 1))
    (2): BatchNorm2d(256, eps=1e-05, momentum=0.1, affine=True, track_running_stats=True)
    (3): LeakyReLU(negative_slope=0.1, inplace=True)
  )
  (upsample): Upsample(scale_factor=2.0, mode='bilinear')
  (layerskip): Sequential(
    (0): ReflectionPad2d((0, 0, 0, 0))
    (1): Conv2d(224, 4, kernel_size=(1, 1), stride=(1, 1))
    (2): BatchNorm2d(4, eps=1e-05, momentum=0.1, affine=True, track_running_stats=True)
    (3): LeakyReLU(negative_slope=0.1, inplace=True)
  )
  (layer3): Sequential(
    (0): BatchNorm2d(260, eps=1e-05, momentum=0.1, affine=True, track_running_stats=True)
    (1): ReflectionPad2d((1, 1, 1, 1))
    (2): Conv2d(260, 256, kernel_size=(3, 3), stride=(1, 1))
    (3): BatchNorm2d(256, eps=1e-05, momentum=0.1, affine=True, track_running_stats=True)
    (4): LeakyReLU(negative_slope=0.1, inplace=True)
  )
  (layer4): Sequential(
    (0): ReflectionPad2d((0, 0, 0, 0))
    (1): Conv2d(256, 256, kernel_size=(1, 1), stride=(1, 1))
    (2): BatchNorm2d(256, eps=1e-05, momentum=0.1, affine=True, track_running_stats=True)
    (3): LeakyReLU(negative_slope=0.1, inplace=True)
  )
  (layer5): Sequential(
    (0): ReflectionPad2d((0, 0, 0, 0))
    (1): Conv2d(256, 240, kernel_size=(1, 1), stride=(1, 1))
  )
  (softmax): Softmax(dim=1)
) took 8.68s
13-Mar-26 09:25:56 - __main__ - [INFO] - Saved estimates to /fs-computility-new/UPDZ02_sunhe/shared/QA_yixuan/standalone_unmixing_SUnCNN_DC1_sandbox/exp_standalone_unmixing_SUnCNN_DC1/estimates.mat
13-Mar-26 09:25:56 - __main__ - [INFO] - SRE => {'Overall': 9.3864}
  [Metadata] Recorded schema for: compute_metric
…
