…
 98%|█████████▊| 787/800 [00:03<00:00, 365.90it/s, loss=3.738e+02]
 98%|█████████▊| 787/800 [00:03<00:00, 365.90it/s, loss=3.736e+02]
 98%|█████████▊| 787/800 [00:03<00:00, 365.90it/s, loss=3.737e+02]
 98%|█████████▊| 787/800 [00:03<00:00, 365.90it/s, loss=3.739e+02]
 98%|█████████▊| 787/800 [00:03<00:00, 365.90it/s, loss=3.739e+02]
 98%|█████████▊| 787/800 [00:03<00:00, 365.90it/s, loss=3.737e+02]
 98%|█████████▊| 787/800 [00:03<00:00, 365.90it/s, loss=3.736e+02]
100%|██████████| 800/800 [00:03<00:00, 228.75it/s, loss=3.736e+02]
13-Mar-26 07:05:19 - __main__ - [INFO] - MiSiCNet(
  (layer1): Sequential(
    (0): ReflectionPad2d((1, 1, 1, 1))
    (1): Conv2d(224, 256, kernel_size=(3, 3), stride=(1, 1))
    (2): BatchNorm2d(256, eps=1e-05, momentum=0.1, affine=True, track_running_stats=True)
    (3): LeakyReLU(negative_slope=0.1, inplace=True)
  )
  (layer2): Sequential(
    (0): ReflectionPad2d((1, 1, 1, 1))
    (1): Conv2d(256, 256, kernel_size=(3, 3), stride=(1, 1))
    (2): BatchNorm2d(256, eps=1e-05, momentum=0.1, affine=True, track_running_stats=True)
    (3): LeakyReLU(negative_slope=0.1, inplace=True)
  )
  (layerskip): Sequential(
    (0): ReflectionPad2d((0, 0, 0, 0))
    (1): Conv2d(224, 4, kernel_size=(1, 1), stride=(1, 1))
    (2): BatchNorm2d(4, eps=1e-05, momentum=0.1, affine=True, track_running_stats=True)
    (3): LeakyReLU(negative_slope=0.1, inplace=True)
  )
  (layer3): Sequential(
    (0): ReflectionPad2d((1, 1, 1, 1))
    (1): Conv2d(260, 256, kernel_size=(3, 3), stride=(1, 1))
    (2): BatchNorm2d(256, eps=1e-05, momentum=0.1, affine=True, track_running_stats=True)
    (3): LeakyReLU(negative_slope=0.1, inplace=True)
  )
  (layer4): Sequential(
    (0): ReflectionPad2d((1, 1, 1, 1))
    (1): Conv2d(256, 5, kernel_size=(3, 3), stride=(1, 1))
    (2): BatchNorm2d(5, eps=1e-05, momentum=0.1, affine=True, track_running_stats=True)
    (3): LeakyReLU(negative_slope=0.1, inplace=True)
  )
  (decoder): Linear(in_features=5, out_features=224, bias=False)
  (softmax): Softmax(dim=1)
) took 4.58s
13-Mar-26 07:05:19 - __main__ - [INFO] - Estimates saved to /fs-computility-new/UPDZ02_sunhe/shared/QA_yixuan/standalone_unmixing_MiSiCNet_DC1_sandbox/./exp_standalone/estimates.mat
13-Mar-26 07:05:19 - matplotlib.pyplot - [DEBUG] - Loaded backend agg version v2.2.
13-Mar-26 07:05:19 - matplotlib.font_manager - [DEBUG] - findfont: Matching sans\-serif:style=normal:variant=normal:weight=normal:stretch=normal:size=10.0.
…
